save_data/init/GEM_pert_B1.npy (npy, 228104 bytes, 1 tensors)

array f8 [161, 177]
000000 e4 98 99 99 99 99 b9 3f ad 72 99 99 99 99 b9 3f
       0.09999999999999748 0.09999999999986171
000010 64 4c 91 99 99 99 b9 3f 7b 9a d3 97 99 99 b9 3f
       0.09999999999244974 0.09999999958709253
000020 4c db ee 38 99 99 b9 3f a8 4b 30 fa 98 99 b9 3f
       0.09999997749296802 0.0999999628841538
000030 28 5f c2 b0 98 99 b9 3f ad a5 07 49 98 99 b9 3f
       0.09999994578754168 0.09999992163616041
000040 f1 cd ce ae 97 99 b9 3f c8 ee dd c6 96 99 b9 3f
       0.09999988572854314 0.0999998317255929
000050 92 5c 61 6a 95 99 b9 3f cf 0d 50 60 93 99 b9 3f
       0.09999975058723212 0.09999962903389491
000060 a4 97 d5 53 90 99 b9 3f fc 45 5c c6 8b 99 b9 3f
       0.09999944731461469 0.09999917595657587
000070 3c 96 ee fa 84 99 b9 3f 7b d0 8a d7 7a 99 b9 3f
       0.09999877096432724 0.09999816667806442
000080 cf 64 67 b7 6b 99 b9 3f da 81 bb 26 55 99 b9 3f
       0.09999726512559735 0.0999959201394697
000090 8c 8e fb 7c 33 99 b9 3f 20 68 10 45 01 99 b9 3f
       0.09999391366323546 0.09999092041144353
0000a0 1f 2b f6 5a b6 98 b9 3f 68 a9 29 9a 46 98 b9 3f
       0.09998645516149594 0.09997979415644453
0000b0 18 c5 60 e6 9f 97 b9 3f ba 18 76 3d a7 96 b9 3f
       0.09996985792601654 0.09995503664512997
0000c0 64 6a 08 5a 34 95 b9 3f fc 79 20 34 0b 93 b9 3f
       0.09993292997425268 0.0998999597800107
0000d0 48 06 b9 57 d2 8f b9 3f 4e 66 71 8c 04 8b b9 3f
       0.09985079423588517 0.09977749279769307
0000e0 27 9b 59 96 db 83 b9 3f f2 03 86 da 30 79 b9 3f
       0.0996682397904861 0.09950547537847834
0000f0 a7 ea af 57 4f 69 b9 3f 03 e5 d2 a2 b0 51 b9 3f
       0.09926315203476098 0.09890274024191474
000100 46 26 60 8e 9c 2e b9 3f 89 e6 7b 53 a1 fa b8 3f
       0.09836748577085883 0.09757431305106413
000110 80 b0 30 e5 d9 ad b8 3f c9 21 87 e6 fc 3c b8 3f
       0.09640275807822896 0.09468060138818325
000120 9d 32 82 3e 3f 98 b7 3f 7c f7 61 96 3d aa b6 3f
       0.09216685558403488 0.08853516503765307
000130 b5 c5 5f 57 70 57 b5 3f 42 ba 11 f9 2e 7f b3 3f
       0.08336546071202273 0.07615941601555057
000140 36 b8 90 d7 d4 ff b0 3f 60 0e 6e 57 37 7f ab 3f
       0.06640367758583995 0.053704957411380816
000150 6d c7 c1 30 11 74 a3 3f 00 21 78 68 13 36 94 3f
       0.03799489708116153 0.01973753285531732
000160 00 00 00 00 00 00 00 00 e0 9a a6 49 13 36 94 bf
       0.0 -0.019737531061447267
000170 60 a3 0e 22 11 74 a3 bf 0d 81 34 4b 37 7f ab bf
       -0.03799489536988321 -0.05370495598822531
000180 0b 58 c3 d2 d4 ff b0 bf bf 31 76 f5 2e 7f b3 bf
       -0.06640367646772931 -0.07615941517560197
000190 3f c8 13 56 70 57 b5 bf 94 3d 85 94 3d aa b6 bf
       -0.08336546041007951 -0.08853516460407312
0001a0 ad 08 3f 3d 3f 98 b7 bf d0 ba a1 e5 fc 3c b8 bf
       -0.0921668552901191 -0.09468060117954313
0001b0 9f 53 95 e4 d9 ad b8 bf f7 82 12 53 a1 fa b8 bf
       -0.0964027579369273 -0.09757431295521345
0001c0 40 e4 3a 8e 9c 2e b9 bf c4 e6 a2 a2 b0 51 b9 bf
       -0.09836748573697296 -0.09890274019826523
0001d0 f7 a0 8f 57 4f 69 b9 bf 17 51 70 da 30 79 b9 bf
       -0.09926315200539536 -0.09950547535874353
0001e0 a8 10 4b 96 db 83 b9 bf 70 ab 67 8c 04 8b b9 bf
       -0.09966823977726114 -0.09977749278884374
0001f0 b7 98 b3 57 d2 8f b9 bf 32 14 1c 34 0b 93 b9 bf
       -0.09985079423094843 -0.0998999597760111
000200 80 77 05 5a 34 95 b9 bf 7d 1e 74 3d a7 96 b9 bf
       -0.09993292997157077 -0.09995503664333145
000210 c7 71 5f e6 9f 97 b9 bf 7a df 28 9a 46 98 b9 bf
       -0.09996985792481104 -0.09997979415572714
000220 40 b0 f5 5a b6 98 b9 bf e7 01 10 45 01 99 b9 bf
       -0.09998645516105942 -0.09999092041108036
000230 07 4a fb 7c 33 99 b9 bf ea 53 bb 26 55 99 b9 bf
       -0.09999391366299203 -0.0999959201393065
000240 a2 55 67 b7 6b 99 b9 bf d7 bb 8a d7 7a 99 b9 bf
       -0.09999726512554344 -0.0999981666779911
000250 94 89 ee fa 84 99 b9 bf b5 3c 5c c6 8b 99 b9 bf
       -0.09999877096428228 -0.09999917595654291
000260 6a 91 d5 53 90 99 b9 bf 3d 0a 50 60 93 99 b9 bf
       -0.09999944731459257 -0.09999962903388222
000270 c4 59 61 6a 95 99 b9 bf e4 ec dd c6 96 99 b9 bf
       -0.09999975058722216 -0.09999983172558619
000280 a7 cc ce ae 97 99 b9 bf 30 a5 07 49 98 99 b9 bf
       -0.09999988572853856 -0.09999992163615867
000290 ec 5e c2 b0 98 99 b9 bf 3d 4b 30 fa 98 99 b9 bf
       -0.09999994578754084 -0.09999996288415232
0002a0 04 db ee 38 99 99 b9 bf 7a 9a d3 97 99 99 b9 bf
       -0.09999997749296702 -0.09999999958709252
0002b0 64 4c 91 99 99 99 b9 bf aa 72 99 99 99 99 b9 bf
       -0.09999999999244974 -0.09999999999986167
0002c0 2d 98 99 99 99 99 b9 bf aa 72 99 99 99 99 b9 bf
       -0.09999999999999494 -0.09999999999986167
0002d0 64 4c 91 99 99 99 b9 bf 7a 9a d3 97 99 99 b9 bf
       -0.09999999999244974 -0.09999999958709252
0002e0 4d db ee 38 99 99 b9 bf a8 4b 30 fa 98 99 b9 bf
       -0.09999997749296803 -0.0999999628841538
0002f0 28 5f c2 b0 98 99 b9 bf 12 a6 07 49 98 99 b9 bf
       -0.09999994578754168 -0.09999992163616181
000300 f0 cd ce ae 97 99 b9 bf c8 ee dd c6 96 99 b9 bf
       -0.09999988572854313 -0.0999998317255929
000310 92 5c 61 6a 95 99 b9 bf cf 0d 50 60 93 99 b9 bf
       -0.09999975058723212 -0.09999962903389491
000320 a4 97 d5 53 90 99 b9 bf fd 45 5c c6 8b 99 b9 bf
       -0.09999944731461469 -0.09999917595657588
000330 3a 96 ee fa 84 99 b9 bf 7a d0 8a d7 7a 99 b9 bf
       -0.09999877096432722 -0.09999816667806441
000340 ca 65 67 b7 6b 99 b9 bf da 81 bb 26 55 99 b9 bf
       -0.09999726512560084 -0.0999959201394697
000350 8d 8e fb 7c 33 99 b9 bf 20 68 10 45 01 99 b9 bf
       -0.09999391366323547 -0.09999092041144353
000360 6c 1f f6 5a b6 98 b9 bf 28 ac 29 9a 46 98 b9 bf
       -0.09998645516145438 -0.0999797941564543
000370 17 c5 60 e6 9f 97 b9 bf d5 18 76 3d a7 96 b9 bf
       -0.09996985792601652 -0.09995503664513035
000380 62 6a 08 5a 34 95 b9 bf fd 79 20 34 0b 93 b9 bf
       -0.09993292997425265 -0.09989995978001072
000390 48 06 b9 57 d2 8f b9 bf d4 63 71 8c 04 8b b9 bf
       -0.09985079423588517 -0.09977749279768428
0003a0 a2 94 59 96 db 83 b9 bf aa 02 86 da 30 79 b9 bf
       -0.09966823979046294 -0.09950547537847379
0003b0 d4 ea af 57 4f 69 b9 bf fa e4 d2 a2 b0 51 b9 bf
       -0.0992631520347616 -0.09890274024191462
0003c0 9a 1a 66 8e 9c 2e b9 bf 8d e6 7b 53 a1 fa b8 bf
       -0.09836748577627433 -0.09757431305106419
0003d0 0a e8 2e e5 d9 ad b8 bf c5 21 87 e6 fc 3c b8 bf
       -0.09640275807660728 -0.0946806013881832
0003e0 0d 38 84 3e 3f 98 b7 bf 60 ea 33 96 3d aa b6 bf
       -0.09216685558587319 -0.08853516499576974
0003f0 c4 fd 1b 57 70 57 b5 bf 42 ba 11 f9 2e 7f b3 bf
       -0.08336546065037626 -0.07615941601555057
000400 1a b8 90 d7 d4 ff b0 bf 74 0e 6e 57 37 7f ab bf
       -0.06640367758583957 -0.053704957411380955
000410 da c4 c1 30 11 74 a3 bf 4d 06 ac 6a 13 36 94 bf
       -0.037994897081156956 -0.01973753298353236
000420 00 00 00 00 00 00 00 00 7d 9a a6 49 13 36 94 3f
       0.0 0.019737531061446923
000430 84 a2 0e 22 11 74 a3 3f c2 80 34 4b 37 7f ab 3f
       0.03799489536988168 0.05370495598822479
000440 fe 57 c3 d2 d4 ff b0 3f b4 31 76 f5 2e 7f b3 3f
       0.06640367646772913 0.07615941517560182
000450 1c 4d a1 57 70 57 b5 3f 74 3d 85 94 3d aa b6 3f
       0.08336546077162094 0.08853516460407268
000460 02 0e 57 3d 3f 98 b7 3f a5 67 a3 e5 fc 3c b8 3f
       0.09216685531196592 0.09468060118106665
000470 9f 53 95 e4 d9 ad b8 3f bf ba 11 53 a1 fa b8 3f
       0.0964027579369273 0.09757431295450213
000480 40 e4 3a 8e 9c 2e b9 3f cc e6 a2 a2 b0 51 b9 3f
       0.09836748573697296 0.09890274019826534
000490 8c a0 8f 57 4f 69 b9 3f ad 53 70 da 30 79 b9 3f
       0.09926315200539387 0.09950547535875272
0004a0 9c 03 4b 96 db 83 b9 3f 7c b7 67 8c 04 8b b9 3f
       0.09966823977721478 0.09977749278888653
0004b0 cd a6 b2 57 d2 8f b9 3f 32 14 1c 34 0b 93 b9 3f
       0.09985079423008898 0.0998999597760111
0004c0 7f 77 05 5a 34 95 b9 3f e0 1e 74 3d a7 96 b9 3f
       0.09993292997157076 0.09995503664333283
0004d0 c5 71 5f e6 9f 97 b9 3f 10 e8 28 9a 46 98 b9 3f
       0.09996985792481101 0.09997979415575764
0004e0 d7 a6 f5 5a b6 98 b9 3f e8 01 10 45 01 99 b9 3f
       0.09998645516102599 0.09999092041108038
0004f0 06 4a fb 7c 33 99 b9 3f eb 53 bb 26 55 99 b9 3f
       0.09999391366299201 0.09999592013930651
000500 a2 55 67 b7 6b 99 b9 3f d8 bb 8a d7 7a 99 b9 3f
       0.09999726512554344 0.09999816667799111
000510 94 89 ee fa 84 99 b9 3f b5 3c 5c c6 8b 99 b9 3f
       0.09999877096428228 0.09999917595654291
000520 6b 91 d5 53 90 99 b9 3f 3f 0a 50 60 93 99 b9 3f
       0.09999944731459258 0.09999962903388225
000530 c3 59 61 6a 95 99 b9 3f e4 ec dd c6 96 99 b9 3f
       0.09999975058722214 0.09999983172558619
000540 a8 cc ce ae 97 99 b9 3f 49 a5 07 49 98 99 b9 3f
       0.09999988572853857 0.09999992163615902
000550 ec 5e c2 b0 98 99 b9 3f 3e 4b 30 fa 98 99 b9 3f
       0.09999994578754084 0.09999996288415233
000560 0a db ee 38 99 99 b9 3f 79 9a d3 97 99 99 b9 3f
       0.0999999774929671 0.0999999995870925
000570 64 4c 91 99 99 99 b9 3f ad 72 99 99 99 99 b9 3f
       0.09999999999244974 0.09999999999986171
000580 e4 98 99 99 99 99 b9 3f e4 98 99 99 99 99 b9 3f
       0.09999999999999748 0.09999999999999748
000590 ad 72 99 99 99 99 b9 3f 64 4c 91 99 99 99 b9 3f
       0.09999999999986171 0.09999999999244974
0005a0 7b 9a d3 97 99 99 b9 3f 4c db ee 38 99 99 b9 3f
       0.09999999958709253 0.09999997749296802
0005b0 a8 4b 30 fa 98 99 b9 3f 28 5f c2 b0 98 99 b9 3f
       0.0999999628841538 0.09999994578754168
0005c0 ad a5 07 49 98 99 b9 3f f1 cd ce ae 97 99 b9 3f
       0.09999992163616041 0.09999988572854314
0005d0 c8 ee dd c6 96 99 b9 3f 92 5c 61 6a 95 99 b9 3f
       0.0999998317255929 0.09999975058723212
0005e0 cf 0d 50 60 93 99 b9 3f a4 97 d5 53 90 99 b9 3f
       0.09999962903389491 0.09999944731461469
0005f0 fc 45 5c c6 8b 99 b9 3f 3c 96 ee fa 84 99 b9 3f
       0.09999917595657587 0.09999877096432724
000600 7b d0 8a d7 7a 99 b9 3f cf 64 67 b7 6b 99 b9 3f
       0.09999816667806442 0.09999726512559735
000610 da 81 bb 26 55 99 b9 3f 8c 8e fb 7c 33 99 b9 3f
       0.0999959201394697 0.09999391366323546
000620 20 68 10 45 01 99 b9 3f 1f 2b f6 5a b6 98 b9 3f
       0.09999092041144353 0.09998645516149594
000630 68 a9 29 9a 46 98 b9 3f 18 c5 60 e6 9f 97 b9 3f
       0.09997979415644453 0.09996985792601654
000640 ba 18 76 3d a7 96 b9 3f 64 6a 08 5a 34 95 b9 3f
       0.09995503664512997 0.09993292997425268
000650 fc 79 20 34 0b 93 b9 3f 48 06 b9 57 d2 8f b9 3f
       0.0998999597800107 0.09985079423588517
000660 4e 66 71 8c 04 8b b9 3f 27 9b 59 96 db 83 b9 3f
       0.09977749279769307 0.0996682397904861
000670 f2 03 86 da 30 79 b9 3f a7 ea af 57 4f 69 b9 3f
       0.09950547537847834 0.09926315203476098
000680 03 e5 d2 a2 b0 51 b9 3f 46 26 60 8e 9c 2e b9 3f
       0.09890274024191474 0.09836748577085883
000690 89 e6 7b 53 a1 fa b8 3f 80 b0 30 e5 d9 ad b8 3f
       0.09757431305106413 0.09640275807822896
0006a0 c9 21 87 e6 fc 3c b8 3f 9d 32 82 3e 3f 98 b7 3f
       0.09468060138818325 0.09216685558403488
0006b0 7c f7 61 96 3d aa b6 3f b5 c5 5f 57 70 57 b5 3f
       0.08853516503765307 0.08336546071202273
0006c0 42 ba 11 f9 2e 7f b3 3f 36 b8 90 d7 d4 ff b0 3f
       0.07615941601555057 0.06640367758583995
0006d0 60 0e 6e 57 37 7f ab 3f 6d c7 c1 30 11 74 a3 3f
       0.053704957411380816 0.03799489708116153
0006e0 00 21 78 68 13 36 94 3f 00 00 00 00 00 00 00 00
       0.01973753285531732 0.0
0006f0 e0 9a a6 49 13 36 94 bf 60 a3 0e 22 11 74 a3 bf
       -0.019737531061447267 -0.03799489536988321
000700 0d 81 34 4b 37 7f ab bf 0b 58 c3 d2 d4 ff b0 bf
       -0.05370495598822531 -0.06640367646772931
000710 bf 31 76 f5 2e 7f b3 bf 3f c8 13 56 70 57 b5 bf
       -0.07615941517560197 -0.08336546041007951
000720 94 3d 85 94 3d aa b6 bf ad 08 3f 3d 3f 98 b7 bf
       -0.08853516460407312 -0.0921668552901191
000730 d0 ba a1 e5 fc 3c b8 bf 9f 53 95 e4 d9 ad b8 bf
       -0.09468060117954313 -0.0964027579369273
000740 f7 82 12 53 a1 fa b8 bf 40 e4 3a 8e 9c 2e b9 bf
       -0.09757431295521345 -0.09836748573697296
000750 c4 e6 a2 a2 b0 51 b9 bf f7 a0 8f 57 4f 69 b9 bf
       -0.09890274019826523 -0.09926315200539536
000760 17 51 70 da 30 79 b9 bf a8 10 4b 96 db 83 b9 bf
       -0.09950547535874353 -0.09966823977726114
000770 70 ab 67 8c 04 8b b9 bf b7 98 b3 57 d2 8f b9 bf
       -0.09977749278884374 -0.09985079423094843
000780 32 14 1c 34 0b 93 b9 bf 80 77 05 5a 34 95 b9 bf
       -0.0998999597760111 -0.09993292997157077
000790 7d 1e 74 3d a7 96 b9 bf c7 71 5f e6 9f 97 b9 bf
       -0.09995503664333145 -0.09996985792481104
0007a0 7a df 28 9a 46 98 b9 bf 40 b0 f5 5a b6 98 b9 bf
       -0.09997979415572714 -0.09998645516105942
0007b0 e7 01 10 45 01 99 b9 bf 07 4a fb 7c 33 99 b9 bf
       -0.09999092041108036 -0.09999391366299203
0007c0 ea 53 bb 26 55 99 b9 bf a2 55 67 b7 6b 99 b9 bf
       -0.0999959201393065 -0.09999726512554344
0007d0 d7 bb 8a d7 7a 99 b9 bf 94 89 ee fa 84 99 b9 bf
       -0.0999981666779911 -0.09999877096428228
0007e0 b5 3c 5c c6 8b 99 b9 bf 6a 91 d5 53 90 99 b9 bf
       -0.09999917595654291 -0.09999944731459257
0007f0 3d 0a 50 60 93 99 b9 bf c4 59 61 6a 95 99 b9 bf
       -0.09999962903388222 -0.09999975058722216
